mnist_training/he_cnn_model.pth (torch, 3921 bytes, 4 tensors)

conv1.weight f4 [1, 1, 5, 5]
000000 5f 2f 1a be 00 13 4b be ba aa 84 3c 7d 70 e9 3d
       -0.15057133 -0.19831467 0.01619469 0.113984086
000010 a7 fc eb 3d 01 ab 54 bc d3 da 30 be 85 6f f7 bd
       0.11522799 -0.012980224 -0.17270975 -0.120818175
000020 68 9e a1 3e 39 68 f7 3d 0e 0a c1 3d b5 2b 80 3e
       0.31566167 0.12080426 0.09425746 0.25033346
000030 6c 63 dc 3d 99 0a f2 3d b2 98 95 3d 94 a9 54 3e
       0.10761151 0.118184276 0.07304515 0.20767814
000040 5f ba ed 3c 87 c5 4b 3d 57 10 6e 3e d1 09 f0 3c
       0.029019533 0.049748924 0.2324842 0.029301556
000050 52 61 0f be e9 29 7c be 25 7c a5 be be c0 b0 bc
       -0.14001969 -0.24625362 -0.32321277 -0.021576282
000060 10 57 3a 3e
       0.18197274

conv2.weight f4 [1, 1, 5, 5]
000000 b6 b5 9e be dd 10 e0 3e 94 ee 51 3d 21 61 f5 bd
       -0.3099801 0.43762866 0.051252916 -0.119814165
000010 fb ec b2 be 81 fa d3 3e 36 2b 21 3e d3 5d ad bc
       -0.34946427 0.41402057 0.1573914 -0.021162903
000020 38 9b 9b 3d ae 55 0f be b4 57 e9 3e 76 2f 2d 3e
       0.07597965 -0.13997528 0.45574725 0.16912636
000030 95 3c 24 3d 37 7d 62 bd d8 4e 9c 3e 13 90 82 3e
       0.040096838 -0.055295195 0.30528903 0.25500545
000040 9c 88 7a bd ac 69 ae 3d 44 a4 05 3e da 2a db 3e
       -0.061165437 0.08516249 0.13050944 0.4280613
000050 bb 69 c1 bd 19 b2 cd 3c fd 96 4b bc 0b 14 9d bc
       -0.094439946 0.025109338 -0.012426135 -0.019174596
000060 d4 9e 10 bd
       -0.03530772

fc.weight f4 [10, 16]
000000 0b c4 09 bd 1d 1c 7e 3e 84 a5 94 3d 4a f7 9b 3d
       -0.033634227 0.24815412 0.07258132 0.07615526
000010 1e b3 a1 bc fb ba 15 be 8f ba 5a bd 55 b0 2e 3d
       -0.01973873 -0.14622109 -0.053400572 0.042648632
000020 32 29 16 3e 2b be 5a 3d ef 60 fc be cc 06 1f be
       0.14664152 0.053404015 -0.49292704 -0.15529937
000030 b4 01 b5 3e de 88 ac 3d bd 40 0a bf ed 77 c0 bd
       0.35352862 0.08424543 -0.5400503 -0.09397874
000040 51 04 68 3d 89 8d 98 be aa 4b 2e bd 90 b6 45 bd
       0.05664474 -0.29795483 -0.042552628 -0.04826981
000050 27 72 c5 bd 5d b7 3f be 39 fc 20 3e e2 1c 83 3e
       -0.096409135 -0.18722291 0.15721215 0.25607973
000060 f2 0b 80 bc 5d d5 ee be 9f db 62 3e 71 7c c5 be
       -0.015630696 -0.46647158 0.22154091 -0.38571504
000070 01 50 a4 be 07 fb 9a bd 81 7c 67 3e 7f 1d 00 3e
       -0.32092288 -0.07567411 0.22606088 0.12511252
000080 ed a2 17 bd d2 44 36 3e bf 18 4b bd 82 4f 7e bd
       -0.037020613 0.1779969 -0.049584147 -0.062087543
000090 af 2e 98 be 9e 38 b6 be 16 ad 90 be be 17 53 be
       -0.29723117 -0.3559007 -0.28257054 -0.20614526
0000a0 1f 86 ef bc dc f0 43 be 12 1b d0 3d 42 f8 8c 3e
       -0.029238759 -0.1913485 0.10161413 0.27533156
0000b0 bb 08 1a 3e 15 a5 22 3e 88 0a 53 3e 84 0b 24 3d
       0.15042393 0.15883286 0.20609486 0.040050045
0000c0 b4 7e 80 bd 7d a8 54 3e 86 6d 3f 3e af 50 7a 3d
       -0.06274167 0.20767398 0.18694124 0.061112102
0000d0 83 f4 3f 3d f7 aa 38 be 5c c8 9c bd 35 22 dc 3c
       0.046864044 -0.18033968 -0.07655403 0.02687178
0000e0 59 0e e7 be db 14 91 be f7 0a 4d 3e 1b 64 08 3e
       -0.45128134 -0.28336224 0.20023714 0.13319437
0000f0 fa 44 62 bc 11 38 35 be f7 42 c9 bd 77 2b 27 3e
       -0.013810391 -0.17697169 -0.09827226 0.16325174
000100 36 dc 8b be ef 02 f3 bd 1a 4e da be 84 61 41 bd
       -0.27316445 -0.11865794 -0.42637712 -0.04721214
000110 82 42 25 3d 73 02 c8 3c 95 05 8d bd 22 53 90 3e
       0.04034663 0.02441523 -0.0688583 0.28188425
000120 46 89 52 3e 77 9c 66 3e d1 b5 5e 3a 61 01 98 3c
       0.20560178 0.22520624 0.00084957207 0.018555345
000130 13 21 aa bd 3f ea bd be a5 78 54 3d d8 11 75 bd
       -0.0830709 -0.37092778 0.051872868 -0.05983147
000140 94 a3 07 3d a7 e7 8c 3d 24 cc 91 3c 24 fe cc 3e
       0.033114985 0.06880122 0.017797537 0.40037644
000150 9b aa 8b 3e 2e f2 03 3e 00 f3 4a be 98 30 32 be
       0.272786 0.12885353 -0.1981926 -0.1740135
000160 dc 88 11 be bc 30 96 3c 6a f5 2c be 7e e4 c6 be
       -0.14212364 0.018333785 -0.16890493 -0.388462
000170 f3 0b 2a 3e b3 e0 f8 bd 1c 4f 06 be 79 19 07 bc
       0.16606121 -0.12152233 -0.13116115 -0.008245819
000180 39 b7 63 be 5a 27 4c be e7 ce 05 bf 77 ff 8d be
       -0.22237863 -0.19936886 -0.5226883 -0.27733967
000190 bb e0 b4 3a fc e3 1b bd dc 5b e5 bc 56 60 a8 be
       0.0013799885 -0.03805922 -0.027997904 -0.32885998
0001a0 83 e1 2c 3e 88 80 43 3d a8 99 94 bd 9a c7 a1 3d
       0.16882901 0.04773 -0.0725587 0.07899399
0001b0 1d 7f 30 3e 63 0c 93 3e de f9 1f 3e 26 51 6f bc
       0.1723599 0.28720388 0.1562266 -0.01460675
0001c0 76 8b 98 3e 3f 2f 8b 3e cd 95 74 bd b4 6f 2f bd
       0.297939 0.27184483 -0.059713174 -0.042831138
0001d0 d6 cd 50 be 90 be 0e be 51 e3 b6 3d 7c af f4 3e
       -0.2039102 -0.13939881 0.08930076 0.47790134
0001e0 74 86 9e 3d 6b f8 29 be 2a b1 2e be 77 f8 58 bd
       0.07740489 -0.1659867 -0.1705977 -0.05297133
0001f0 be ba 6b be 05 b4 35 bf 40 d6 d4 3d c3 24 93 3d
       -0.23020455 -0.70977813 0.103924274 0.07184746
000200 09 76 4d be fc 79 8e 3d d5 3a 24 3e f0 ff 7d 3e
       -0.20064558 0.069568604 0.16038068 0.24804664
000210 ad 26 1f 3e 3c 19 a3 3d e5 42 c7 3c 35 f5 1d be
       0.15542097 0.079637975 0.02432389 -0.1542557
000220 70 71 fd 3b 51 98 e7 bd ea ff 19 be e5 19 83 3d
       0.00773447 -0.11308349 -0.1503903 0.06401423
000230 11 70 58 be 41 de c9 3d c4 e7 88 3d c8 82 ba be
       -0.211365 0.09856845 0.06684831 -0.36427903
000240 98 30 22 3c a7 8a 94 3c f5 22 02 be 59 a6 57 3e
       0.009899281 0.01813252 -0.12708648 0.2105955
000250 c7 3c 57 be fe b9 7a 3d 79 42 3f 3e 65 ee 50 3e
       -0.21019278 0.061212532 0.18677701 0.2040344
000260 08 40 4e 3e 4b 5d 92 bc 74 07 b8 bd 10 4f 3b 3d
       0.20141613 -0.017866751 -0.089857966 0.045729697
000270 69 f3 bb be 89 c5 0a bf 02 d7 15 3d 4d 48 1b bc
       -0.36709145 -0.54207665 0.036582 -0.009477687

fc.bias f4 [10]
000000 0a 02 a4 be 36 cf b3 3f 24 17 4a bf a6 70 36 bf
       -0.32032806 1.4047611 -0.7894156 -0.7126564
000010 86 f4 3b 3f c6 46 7a 3e 79 2f 1e 3f 3d c7 ee 3e
       0.7341999 0.2444106 0.6179119 0.46636382
000020 ab 99 c0 bf 6c 8e 0a be
       -1.5046896 -0.13530892
